딥러닝호형/models/dkm_en.pth (torch, 136709 bytes, 8 tensors)

encoder.0.weight f4 [16, 1, 3, 3]
000000 96 bc 2e be ae 8c 38 be 79 5b 22 be ee 62 0a 3c
       -0.17064127 -0.18022415 -0.15855207 0.008446438
000010 b2 0b eb 3c fa 33 29 be 55 10 96 3e aa f1 74 3e
       0.0286921 -0.16523734 0.29309335 0.23920313
000020 3f e1 9d bd 2c bf 3c be 66 f7 86 3e 2a 1a 98 3e
       -0.07708978 -0.18432301 0.26360625 0.29707462
000030 56 94 ce 3e 6c 44 cf 3e 35 8e 8a 3d f4 98 62 3e
       0.40347546 0.4048189 0.06765405 0.2212866
000040 47 46 44 3d 4f bc 61 3e 60 26 59 be d1 e2 0d be
       0.047918584 0.2204449 -0.21206045 -0.13856055
000050 32 a2 43 3e 16 c5 6c be aa 56 27 be 4d c4 78 3e
       0.19104841 -0.23122057 -0.16341653 0.24293633
000060 06 34 df 3e fb a4 5b 3e 8b 4d 8c bd fe 54 65 3d
       0.43594378 0.21449654 -0.06850728 0.055989258
000070 4e e9 a3 3e 04 fb 06 be 05 92 74 3e d1 09 ae 3e
       0.32013935 -0.13181692 0.23883827 0.33991864
000080 9f 7b 57 bc d2 5b ef 3d f9 b9 be 3e 9e b8 64 3c
       -0.013152032 0.11687435 0.3725126 0.013960032
000090 f4 42 a4 3e be 56 29 3e 98 39 2d be f7 08 9d 3e
       0.3208233 0.16536996 -0.16916502 0.30670902
0000a0 12 2f a3 be 85 fc 9c be 6c 03 ba 3b 57 b1 3d bc
       -0.3187185 -0.30661407 0.0056766775 -0.011577926
0000b0 b6 9a 94 3d ad 6e e1 3e 24 82 3b bd 35 00 b9 bd
       0.07256071 0.4402975 -0.04577841 -0.090332426
0000c0 bd f2 76 3e eb 75 33 3e 96 ab 1c be a5 ca 2b 3e
       0.24116035 0.17525451 -0.1529983 0.16776522
0000d0 30 73 5d 3e a9 e6 87 be 97 15 25 3e b8 c6 ee bd
       0.21625972 -0.26543167 0.16121517 -0.11658996
0000e0 05 db 33 bd e6 12 fd 3d 2b 2a 3b 3d 66 39 81 be
       -0.043910045 0.1235712 0.04569451 -0.25239104
0000f0 bd 84 be 3e 4f 95 ec 3b a8 7c b1 be d6 6d 3d be
       0.37210646 0.0072199474 -0.34665418 -0.1849893
000100 ab 99 3c 3c 1b b6 80 3e cf bb 84 be 5b 72 4e be
       0.011511247 0.25138935 -0.25924537 -0.2016081
000110 0b 9e 99 be eb b2 19 bd 66 59 af 3d b6 92 57 be
       -0.3000339 -0.037524145 0.08561973 -0.2105206
000120 4b 2e fd 3e 3d d0 c6 3e b6 1d fa 3d 52 54 29 be
       0.4944938 0.38830748 0.12212698 -0.16536072
000130 e1 f0 a0 bd ac 49 40 bd 9b 29 ee be 7f 30 92 be
       -0.07858444 -0.04694526 -0.46516117 -0.28552625
000140 1a 02 85 3d 58 35 47 3d 58 35 49 be 52 e2 61 3e
       0.064945415 0.048634857 -0.19649255 0.2205899
000150 0c b5 47 3e e1 ad 2c bd ca 82 5e bd ef 56 07 3e
       0.19502658 -0.04215801 -0.05432395 0.13216756
000160 4a f0 84 be 7a 3b c9 be 45 55 bc be ad 7a 9e 3d
       -0.25964576 -0.3930319 -0.36783805 0.07738242
000170 8f 58 ee 3d df 9e 40 3e 8d d4 89 3c 88 eb fe bd
       0.11637985 0.18810605 0.016824985 -0.12447268
000180 fc 6d dc bd 8a 69 47 3e 7c d2 a8 3d ee b7 93 be
       -0.10763165 0.19473854 0.08243272 -0.28851265
000190 89 d7 9d be 3b e5 ac be d1 1c b5 3e a1 47 2b bc
       -0.30828503 -0.3376864 0.35373548 -0.010454089
0001a0 c6 9b 46 bd 4c 30 61 bd 26 dd cc 3e 6c 03 9a 3e
       -0.0484884 -0.0549777 0.40012473 0.30080736
0001b0 f3 60 79 3e ae 5c 75 be c2 e2 aa be d1 70 8b 3e
       0.2435339 -0.23961136 -0.33376127 0.2723451
0001c0 e1 a2 5f be 70 fe 87 be c0 02 d1 3e 77 8d 2f 3e
       -0.21839477 -0.26561308 0.4082241 0.17143808
0001d0 e6 23 af 3e 80 a3 24 3e ce c5 82 bb b7 79 9c be
       0.34207076 0.16077995 -0.0039908653 -0.3056161
0001e0 43 5d 39 3e 83 72 a7 be df 49 0c 3d ba d6 59 be
       0.18101983 -0.32704553 0.034250136 -0.21273318
0001f0 f3 3b 9a 3e 52 2c 88 3e 1d 42 61 3c df 16 9c 3e
       0.30123863 0.26596314 0.013748673 0.304862
000200 12 62 88 be b9 e0 14 3d 47 12 43 3d 61 6e bb 3e
       -0.26637322 0.036347125 0.047624853 0.3660765
000210 3d a5 a8 be 36 2d 75 3e 6d cd 2e 3e 88 bd 0d be
       -0.32938567 0.23943028 0.17070551 -0.13841832
000220 8b 2d 45 bd 60 88 16 be 80 16 2b be 3b 3e 9d be
       -0.048139136 -0.1470046 -0.16707802 -0.3071154
000230 90 d8 07 be c0 d7 cd bd 08 c6 38 be 67 0e 90 be
       -0.13266206 -0.10050917 -0.18044293 -0.28135988

encoder.0.bias f4 [16]
000000 5a 33 39 3e 2c f8 03 be 53 a5 43 bb cf 86 33 bb
       0.18085995 -0.12887639 -0.002985318 -0.0027393585
000010 91 d7 44 bd 1a 13 1a be f4 d2 ef ba b6 05 98 be
       -0.048057143 -0.15046349 -0.0018297122 -0.29691857
000020 65 91 49 bd c3 ca ad 3e 39 81 47 3e 9b f2 89 bc
       -0.049210925 0.33943757 0.19482888 -0.016839316
000030 5d 82 26 be 36 6d 28 3d f4 b2 7b bd 96 13 11 bd
       -0.16260667 0.041119777 -0.06144996 -0.03541907

encoder.2.weight f4 [32, 16, 3, 3]
000000 c0 25 54 3c 88 6e 9d 3c d4 3a 8f 3d 2e 38 8a bc
       0.012948453 0.019217744 0.069936424 -0.016872492
000010 56 33 c1 bc 30 b2 db bc 98 8f 94 3c 65 77 1a 3b
       -0.02358405 -0.026818365 0.018134877 0.00235697
000020 97 89 eb 3d ae cc 2a bd 69 c8 0d bd a7 6f 00 be
       0.115008526 -0.041699104 -0.034614954 -0.12542592
000030 f6 c1 a6 bd 35 8a 18 be c4 94 85 bc b8 ab 1a bd
       -0.08142464 -0.14896472 -0.016306289 -0.03776142
000040 aa b0 d4 bc 40 e7 2c be d6 eb c5 bd aa ff bf 3c
       -0.025963146 -0.1688509 -0.09664123 0.02343734
000050 de ef 1e be 7d 87 42 be 94 91 17 bd 33 22 49 be
       -0.1552119 -0.18996997 -0.03700407 -0.19641952
000060 b0 96 9f bd 6d c1 1d be f0 95 50 be e1 c7 0f be
       -0.07792413 -0.15405817 -0.20369697 -0.14041092
000070 bd e9 e2 bd dd 5a fe bc 27 51 9f bd d9 e8 36 3c
       -0.11079738 -0.031049186 -0.077791505 0.011163914
000080 6e f4 f6 bd 4b e3 04 3c 4d ce f3 bd 79 9d 9a bd
       -0.1205834 0.0081108315 -0.11904583 -0.07549567
000090 cd fd 56 bd 0c 2f a7 bc 61 3c d0 3d 61 6b f8 bd
       -0.052488137 -0.020408176 0.10167766 -0.12129856
0000a0 1e 3f e2 bc 47 ce 94 bd 43 0a 0f be b5 c0 73 bd
       -0.027617987 -0.07265907 -0.13968758 -0.05950995
0000b0 7d f3 94 bd 1f 73 56 3d 73 1c a3 3b 8f f2 95 3e
       -0.07273004 0.05235588 0.0049777566 0.2928662
0000c0 7b 79 cc 3c 2d 01 49 bd ba ce 64 bd 74 7b 82 3d
       0.02496027 -0.049073387 -0.055861212 0.06371203
0000d0 37 92 1d 3d 0f 3c f0 3c 52 da 1d be 34 f4 80 3d
       0.03846952 0.029325513 -0.15415314 0.06296578
0000e0 b4 45 b1 3d 3a ef b5 bd 75 67 0b bd 19 f7 6b bd
       0.08655873 -0.088835195 -0.03403421 -0.057608698
0000f0 69 57 d2 bb 7f 35 84 bb e1 2e 18 3d 9f dd 88 bd
       -0.0064191115 -0.0040346975 0.037154082 -0.06682896
000100 f0 aa 35 3d 96 b9 67 3c 78 74 2b bd 33 6b 6d 3d
       0.04435247 0.014143368 -0.04185912 0.05796356
000110 2b 73 62 3b e0 17 77 3c 26 79 17 3d a0 2b ab bc
       0.0034553509 0.015081376 0.03698077 -0.020894825
000120 93 02 83 be 65 b1 c0 bd 19 40 19 3d 9c f0 db bd
       -0.255879 -0.09408835 0.037414644 -0.10739252
000130 cc 70 38 bd 80 3e b7 bb 61 7e a0 bc 3d bc 66 bd
       -0.045029446 -0.0055921674 -0.019591512 -0.05633186
000140 7b de f1 bb 32 7c 0c bd 29 ad 69 bd 9d 7c a3 3d
       -0.007381258 -0.03429813 -0.057049904 0.079827525
000150 fb a7 bb bc a2 1a bc 3d c0 fa 63 bd 19 31 c5 3d
       -0.022907248 0.09184767 -0.055659056 0.09628505
000160 e1 4f 5b 3c d9 e0 8e 3d 0b 98 bc bc e8 ed 4c 3c
       0.013385744 0.0697648 -0.023021718 0.012507893
000170 4a 86 2a 3d 5d 31 b3 3d 07 a2 38 bd b6 fd 98 bd
       0.041631974 0.0874965 -0.045076396 -0.074702665
000180 a4 6b 46 bd d9 6d 0b 3c 22 e7 35 3d 5e 5b 81 3d
       -0.048442498 0.008510076 0.04440988 0.06316255
000190 44 2d 7b 3e a7 34 60 be 18 ae d0 3b 72 25 13 3e
       0.24528986 -0.21895085 0.00636841 0.14369753
0001a0 b8 c9 db bd 87 7f 2e 3e e2 70 86 bd 40 6b 95 be
       -0.10731834 0.17040835 -0.065644994 -0.29183388
0001b0 df a9 2b be 5b 5c 96 3d c1 e2 07 bd 9f 32 05 be
       -0.1676402 0.07341834 -0.033175234 -0.13007592
0001c0 33 72 6c 3d 8e fe 73 bd 61 f7 11 be 74 8b cb bd
       0.057726096 -0.059568934 -0.14254524 -0.09938708
0001d0 bd f5 24 be 4f d5 70 bd ab 8a 27 bd 97 23 47 bd
       -0.16109367 -0.058797177 -0.04090373 -0.048617925
0001e0 78 88 c3 3a 75 c9 93 3c b3 6c 9c bd c2 39 78 bb
       0.001491799 0.018040398 -0.0763792 -0.0037876223
0001f0 4d c0 3f bd e3 b6 95 bd d4 57 72 bd be 2d 91 bd
       -0.04681425 -0.073102735 -0.05916579 -0.07088803
000200 9f 52 9a bd cc 36 d9 3c 8a 7d 6e 3c ec 2c 22 be
       -0.0753529 0.026515387 0.014556298 -0.15837449
000210 7f be b5 bd 0f 27 79 bd a8 fa 03 be ac ae 93 bd
       -0.08874225 -0.060828265 -0.12888587 -0.072110504
000220 83 db 52 3d 56 6c 38 bd c0 0b c5 3c f6 57 24 bc
       0.051478874 -0.045025192 0.024053454 -0.010030737
000230 eb 30 d5 bc ee a2 a8 3d b8 cb 73 bd 0b 70 44 bc
       -0.026024302 0.08234201 -0.059520453 -0.011989604
000240 0b 10 a0 3d 8f d9 8c 3c 2f 47 73 3d 4f 9d 23 3e
       0.0781556 0.017193584 0.059394058 0.15977977
000250 0c 40 1b 3e fd 51 32 3e 04 ab ec 3d d8 43 6a 3d
       0.1516115 0.17414089 0.11556056 0.057193607
000260 b2 12 76 3d 2a 1d 9c bd 6b fa 1f be 3f 16 34 be
       0.060076423 -0.0762275 -0.1562287 -0.17586611
000270 96 25 a2 be cd a8 20 be 7f 64 87 bd 06 b7 84 3d
       -0.316693 -0.15689392 -0.06610965 0.064802215
000280 5f 47 b2 bc b1 c9 e2 3d 52 78 91 bd 3d b8 d9 bd
       -0.021762548 0.11073626 -0.071030274 -0.10630844
000290 38 cd a0 bd 89 b7 95 3d 34 ad be 3c 21 f1 8a 3d
       -0.07851642 0.07310397 0.023275949 0.06784273
0002a0 e2 25 51 3e b8 c3 28 3e d9 14 19 3e ec e3 f2 bb
       0.20424607 0.16480911 0.14949359 -0.0074124243
0002b0 32 43 dd bd 9d 1a 07 be 13 8d 8a bd b1 7e 84 bd
       -0.10803832 -0.13193746 -0.06765189 -0.06469477
0002c0 d7 20 15 bd 57 f7 ea 3c 57 ba ed 3d a4 7f ac 3d
       -0.03640827 0.028682394 0.11607807 0.08422783
0002d0 d3 4d 20 bc e3 c8 9b 3d 69 6a 03 3e 5f 09 61 bd
       -0.00978418 0.076066755 0.12833561 -0.054940578
0002e0 d3 f7 39 be 4d b2 39 be c8 b1 c5 bd 7c be 04 be
       -0.18160944 -0.18134423 -0.0965305 -0.12963289
0002f0 b9 fc 96 be 67 d4 42 bd 21 23 5d 3d 0e c4 c2 bd
       -0.29489687 -0.047565844 0.05398858 -0.09510051
000300 46 f7 81 be 5c 61 87 be e5 12 86 be 7a 5b f0 3c
       -0.25383967 -0.26441467 -0.2618629 0.029340494
000310 7d 03 d6 3d 5b 39 35 bd 15 a2 3f be 67 d4 00 be
       0.10449884 -0.04424415 -0.18714173 -0.12581025
000320 c8 fa ef bc 0e da 7e be 9f 20 3e be 0f ec 93 be
       -0.029294387 -0.24887869 -0.18567131 -0.28891036
000330 b7 6a 9a bd 82 bd cf bb bd f7 45 bd 00 0c 1c 3c
       -0.075398855 -0.0063397298 -0.048331965 0.009524345
000340 16 e4 c9 3c 86 3f a4 bd 6e 58 85 3d 08 77 0a bd
       0.024644893 -0.08019929 0.06511007 -0.033804923
000350 83 02 a6 bd 6a a0 88 3d 9e 57 8c bd 40 2f 11 3c
       -0.08105948 0.066712216 -0.06852649 0.008861363
000360 cf ab 16 3e 70 74 34 3d 96 92 5c 3d 05 78 2a 3e
       0.14713977 0.044056356 0.053850733 0.16647346
000370 ce a5 ac 3d 1e 68 0e be bb fd aa be 2a 43 72 bd
       0.08430062 -0.13906905 -0.33396706 -0.059146084
000380 50 3c 72 bd 2f c4 26 bc 18 b8 6a 3c 0b 5a b0 3d
       -0.05913955 -0.01017861 0.014326118 0.08610924
000390 c2 5f 18 bd 3a 1a 8f 3d 1a b9 43 3d 20 45 3c bc
       -0.037200697 0.06987424 0.04778395 -0.01149109
0003a0 b2 f5 93 3c 46 11 2a bc bf 2e 27 3b 4b 3f 3f 3d
       0.018061493 -0.010380095 0.002551004 0.04669122
0003b0 46 0d 37 3d 68 59 b7 bb af bf b6 3d 14 dc a7 3d
       0.044690393 -0.005595375 0.089232795 0.081962734
0003c0 41 6b 01 3e 95 7d a6 bc d2 48 81 3b eb bf b8 bd
       0.1263857 -0.020323554 0.0039454484 -0.090209804
0003d0 0d 1b 02 be 38 20 ea bd d5 a7 e0 3d 11 6d 1e 3e
       -0.12705632 -0.114319265 0.109695114 0.15471293
0003e0 4a 3a cc 3d bd 7f c9 3d 9e 65 a8 3d 64 ac 26 3e
       0.09972055 0.09838817 0.08222507 0.162767
0003f0 4a e6 0c be f9 fc 0d be b9 e8 e5 3c 72 b0 28 bd
       -0.13759723 -0.13866033 0.028065072 -0.041183896

encoder.2.bias f4 [32]
000000 7d b8 a7 3d 71 1c 2d 3c 7a b1 59 3d 9d 4e cb bb
       0.08189485 0.010565863 0.05314777 -0.00620444
000010 06 f3 57 bd 96 e8 26 3d cd 40 8b 3d ce a5 e8 3d
       -0.052722 0.040749155 0.06799469 0.1135975
000020 c4 db 00 3d 05 6a be 3d eb 6a 74 b7 df d3 76 3d
       0.031459585 0.09297565 -1.4568427e-05 0.06026065
000030 91 36 97 bb 43 de af 3d 55 d9 97 bc 0d 3d 19 bd
       -0.004614659 0.08587315 -0.01853625 -0.03741174
000040 d4 29 97 3c e7 9c 96 3d 80 db 9e bb 24 8b da bc
       0.018452562 0.073541455 -0.004847944 -0.026677676
000050 dd ac 0c bc 22 ab cb 3c d8 4c 01 bd aa 66 49 3d
       -0.008586136 0.024861876 -0.031567425 0.049170174
000060 39 a4 9d 3d 22 bc 0a 3d 43 1d 8f 3b 07 e1 74 bc
       0.076973386 0.033870824 0.004367502 -0.014946229
000070 08 68 5d bb 25 87 d9 bc 85 89 c3 3d b6 8d 9b bd
       -0.0033783931 -0.0265537 0.09547714 -0.075953886

encoder.4.weight f4 [64, 32, 3, 3]
000000 20 86 93 bc 21 45 52 3d cd cc c9 3d 22 db ba bd
       -0.018008292 0.051335458 0.09853516 -0.091238275
000010 41 b9 d0 3d 64 43 e7 3d 89 72 1e bd 92 63 48 3e
       0.101915844 0.112921506 -0.038683448 0.19569233
000020 4d 87 0f 3e fb 1c 72 bd 4e 0e 8f bd b7 de 79 3d
       0.14016457 -0.05910967 -0.0698515 0.061003413
000030 eb e7 c1 bd f5 ab 94 3c 0a 08 0e 3e 14 79 27 be
       -0.09468063 0.018148402 0.13870254 -0.16354781
000040 1a b5 d3 3d 84 2e ff 3d 1d c9 bd bd 4e d8 db bd
       0.10337277 0.12460044 -0.09266875 -0.10734616
000050 46 51 0c 3e aa e8 bd bd 6f aa 00 3e 6c 72 96 3d
       0.13702878 -0.09272893 0.12565015 0.07346043
000060 a6 59 a1 bd b2 5b 1b 3e f8 fb ef 3d de cd f8 bc
       -0.07878427 0.15171698 0.11717981 -0.030371603
000070 de b2 d7 bc b5 8a 0d 3c 12 da 18 be 9e 4a 2e bd
       -0.026330408 0.008639027 -0.14926937 -0.04255163
000080 0a a4 5f 3d d1 9f de bd b8 5d 46 3e c1 3b a6 3d
       0.0545998 -0.10870326 0.19371688 0.08116866
000090 91 4c 93 3d 4c 45 ea bc e5 5d bc 3c 87 02 14 bd
       0.07192338 -0.028597496 0.022993991 -0.036135223
0000a0 cc d6 4e 3d 4b 08 2d be 82 bf c4 3d 6c b3 c7 3d
       0.050497815 -0.16897695 0.0960684 0.09751019
0000b0 73 f7 ca bd 4a ea bc 3b ca 9b 98 3d fb 0b a3 bd
       -0.099104784 0.005765234 0.074515894 -0.079612695
0000c0 b7 15 9c 3d 80 69 cb bd 7c 37 35 3e be 28 03 bd
       0.07621329 -0.09932232 0.17696947 -0.032021277
0000d0 6d 2d 39 3d 53 23 ea 3d 81 6a 1b 3d 08 36 eb bd
       0.045209337 0.11432519 0.037943367 -0.11484915
0000e0 ac bc 05 bd 44 cd 90 bb 86 ea c3 3d 19 14 50 3e
       -0.032650635 -0.004419001 0.09566216 0.20320167
0000f0 ec 63 80 3c a9 8c 06 3e 20 08 8c 3c 31 b4 be bd
       0.015672646 0.13139595 0.017093718 -0.093117125
000100 4a fa 5d 3c d9 fd f7 3b b5 0d f5 bd 85 89 33 3e
       0.013548443 0.007568103 -0.11965505 0.17532928
000110 48 cd 75 3d 57 d7 8b 3c f5 65 53 3e 47 4d 22 3d
       0.060010225 0.017070455 0.20644362 0.03962448
000120 08 d2 2f 3d 9c 59 c4 bc 92 8d 7a 3d 00 66 a8 bc
       0.04292491 -0.02396851 0.06117017 -0.02055645
000130 0d 35 8e bd 57 55 8c 3e 59 84 c8 bc 0d 9d 07 3e
       -0.069437124 0.2740886 -0.02447717 0.13243504
000140 d8 60 a6 3e 50 dd ac bc 35 33 cb bd ef 8c a1 3d
       0.3249576 -0.021101624 -0.09921876 0.07888209
000150 cd 31 38 bd d5 bb ac bc 24 af fa 3d b8 21 de bd
       -0.04496937 -0.021085659 0.12240437 -0.10846275
000160 b1 81 e7 3d 7f e6 bb 3d bb 0f 15 bd fb 43 c2 3b
       0.113040335 0.09174823 -0.036391955 0.005928514
000170 ee 87 6d bd 9b 8f 42 bc 5b 46 54 bd 4f 22 50 bc
       -0.05799096 -0.0118750585 -0.05182491 -0.012703492
000180 61 60 48 3d d6 71 c1 3c 98 26 8c bc b4 e2 3d 3d
       0.04892004 0.023613852 -0.017108247 0.04635878
000190 64 88 f6 3d fa cc 92 3d 79 ca ae bd ce 00 94 3e
       0.12037733 0.071680024 -0.08534712 0.28906864
0001a0 0d 26 3c 3d 61 ac 5e bc f8 6c 21 3e 33 4a 00 3d
       0.045934726 -0.013590903 0.15764225 0.031320762
0001b0 19 fc 9c bd 72 bf 74 3d be 18 93 3d f5 ac 26 be
       -0.07665271 0.05975289 0.071824536 -0.16276915
0001c0 53 19 0a 3e db 2b 15 3e 60 87 05 be 91 58 89 3e
       0.13486223 0.14567511 -0.13039923 0.26825383
0001d0 31 c6 8e 3e 66 45 7d 3d fe 10 20 3e e0 b7 ac 3c
       0.27885583 0.06183376 0.15631482 0.021083772
0001e0 85 2c 5d be 57 a9 94 3d 7b fb b9 3d f2 fc 8a bc
       -0.21599014 0.072588615 0.09081169 -0.016966317
0001f0 e7 3c 20 3e cf 63 35 3d 0f 0a f7 3c d8 04 d1 bc
       0.15648232 0.044284638 0.030156163 -0.025515005
000200 22 75 9c 3d a7 90 9c bc a3 ec 6c 3e 50 bc 01 3e
       0.07639529 -0.019111944 0.23137145 0.12669492
000210 ec 3c 33 be 08 b9 28 3d 4c 57 81 3d 30 1f cf bd
       -0.17503709 0.041192085 0.06315479 -0.101133704
000220 7e 07 02 be a5 d8 88 3c 17 77 2e be 55 2a 1b bd
       -0.1269817 0.016704867 -0.17037617 -0.037882168
000230 58 f1 09 3e ce 6e 6c be 63 df c1 3c 7f aa ba 3d
       0.13470972 -0.23089144 0.02366609 0.09114551
000240 9b 9a 72 bd 54 e0 ae bd f4 a5 93 3d 57 29 0e be
       -0.059229475 -0.08538881 0.072093874 -0.13882957
000250 d6 c1 a4 bb 2a 07 5e 3e 03 8a e5 bd 4a 83 47 3d
       -0.00502799 0.2168242 -0.11207964 0.04870919
000260 db f2 2c 3e 0f db 01 3d f4 82 3b bd 69 9c 44 3d
       0.16889517 0.03170305 -0.045779184 0.048000727
000270 47 9f b4 3c 68 d4 c6 3d a2 8d c3 bb 09 3f a9 bd
       0.022048606 0.09708482 -0.0059678117 -0.08263976
000280 d0 47 87 3e 1a 0d a6 3a 54 17 8a 3d b4 40 9a bd
       0.26421976 0.00126687 0.06742731 -0.075318724
000290 12 1c be 3d 99 80 b2 bd 2f 36 15 bc 9c 1e 07 bc
       0.09282698 -0.08715934 -0.009107157 -0.008247044
0002a0 84 aa 83 bd c1 3e 7c 3d e5 0a c4 bd a4 32 a8 bc
       -0.06429008 0.061583284 -0.095723905 -0.02053196
0002b0 3b d4 36 3c 1c c9 b6 bd 60 4a 26 bd af 1e 9e bc
       0.011158998 -0.08925077 -0.040598273 -0.01930174
0002c0 5c 05 d5 bd ec 73 75 3d ff 83 03 3e 7a ad 5d bd
       -0.10401413 0.059925005 0.12843321 -0.05412052
0002d0 b9 a2 07 bc 62 8c f8 3d a5 e9 a3 bc ed b7 05 bc
       -0.008278542 0.12136151 -0.020008871 -0.008161527
0002e0 21 b2 8c 3e d7 19 85 bd 70 ac 1b 3e 13 21 9a 3d
       0.27479652 -0.06499069 0.15202498 0.0752584
0002f0 f3 64 2a bd a4 5c d4 3d 25 b0 79 3d ef 18 92 3e
       -0.04160018 0.10369232 0.060959 0.28534648
000300 1e 17 e9 bd 3a 26 ba bd d6 2e b5 3e 87 6a 8f bd
       -0.113813624 -0.090893224 0.35387295 -0.0700274
000310 d3 c9 c6 3e 25 ac 80 3e 0e 76 b2 3d ed cc 4a bd
       0.38825855 0.25131336 0.087139234 -0.04951184
000320 d6 10 c2 be 9d c1 be 3d 4c 0b f2 bd 7f 07 78 be
       -0.3790347 0.093142726 -0.11818561 -0.2422161
000330 36 34 1b 3e 18 19 b9 bd b4 f5 77 be c7 e4 45 3c
       0.15156636 -0.090379894 -0.24214822 0.012078471
000340 20 c9 ae 3a b0 ac 98 3c ea 53 3d 3e 76 d8 a1 bd
       0.0013335086 0.018637031 0.18489042 -0.07902615
000350 82 54 53 bd 34 24 2b bd b3 98 de bd 61 61 12 3e
       -0.051594265 -0.041782573 -0.10868969 0.1429496
000360 e1 22 da bb 1d cd c6 bd 43 4c d9 3d 20 c1 20 be
       -0.00665699 -0.09707091 0.10610249 -0.15698671
000370 a4 cf c3 bc 65 87 71 3e c4 4e 44 be 34 9b 0f 3e
       -0.023902722 0.23586805 -0.19170672 0.14024049
000380 a4 f8 24 3e 1e ea 86 3d 97 9c 47 bc 78 66 39 3e
       0.16110474 0.06587623 -0.01218333 0.18105495
000390 bd 00 62 bc a4 12 b7 bd ee 7e 5d 3e 62 6a d9 3c
       -0.013794121 -0.08939102 0.21630451 0.026539985
0003a0 0a 89 0b 3e de 48 0b 3e 9b 38 57 bd b6 0f 02 be
       0.13626495 0.13602015 -0.052544218 -0.12701306
0003b0 db aa 3b 3e e0 3f 19 be 69 e4 ff bd ce 76 2a 3e
       0.18326895 -0.14965773 -0.12494738 0.16646883
0003c0 92 91 0b be ec b9 19 3e 62 1d 38 3e 8b 36 b4 3c
       -0.1362975 0.1501233 0.17979959 0.021998664
0003d0 2e 79 69 3e e7 9a dd 3d a2 7f 3c bc 3a c9 35 3e
       0.22800133 0.10820561 -0.011505039 0.17752543
0003e0 63 e2 6b 3d 03 cd 59 3e 0b e0 82 3d 0c c1 5c bd
       0.057588946 0.21269612 0.06390389 -0.05389504
0003f0 19 7d 0b 3d 60 d1 7a 3b 4f c0 20 be 4e 09 9e 3d
       0.03405485 0.003827177 -0.1569836 0.077166185

encoder.4.bias f4 [64]
000000 5c 93 7e bd e5 7e 3b 3d 84 45 17 bd 5d 55 7c bd
       -0.06215225 0.045775313 -0.03693153 -0.061604846
000010 89 c8 7c 3d 2d 6d 61 bd 14 7e 41 bc 9a ed 54 3c
       0.061714683 -0.05503576 -0.0118098445 0.012996102
000020 4c 7f 9e 3d 3f ea 89 3d 8b 4c 4f 3d 80 6e 75 3d
       0.07739124 0.06734132 0.050610106 0.059919834
000030 36 d7 66 3d 8e 88 3b 3d 8c 89 6a 3c cf ae ae 3d
       0.056357585 0.045784526 0.01431502 0.08529436
000040 73 1e 42 bd 98 10 0f 3d 12 0c 17 bd 51 8a 3b 3d
       -0.04739232 0.034927934 -0.036876746 0.045786206
000050 7c 40 06 bd 5d f5 9b 3c bf 51 87 3d a6 8e bc 3b
       -0.03277634 0.019037897 0.06607389 0.0057543097
000060 00 95 64 3d ce f4 54 3d 36 c4 08 3c ee 08 97 3d
       0.05580616 0.051991276 0.008347562 0.0737475
000070 ef 13 8d 3d 85 fe 8e 3c 45 de ad 3c 41 ff a5 bb
       0.06888568 0.017455349 0.02122415 -0.005065829
000080 3a 87 ba 3c da 02 a8 b9 64 0c 21 3d 78 93 e0 3c
       0.02276956 -0.00032045582 0.039318457 0.027414069
000090 62 e4 87 3d 11 9a 85 3d 44 d8 5b 3d 13 00 fc bc
       0.066353574 0.065235265 0.053673044 -0.030761754
0000a0 aa fe 35 bd ef c8 c2 bc 7b 79 07 bd c9 2a 2e 3c
       -0.04443232 -0.023777453 -0.033074837 0.010630318
0000b0 eb 0c ae bc 93 fd b9 3c d3 6b a8 3d eb 56 1b bb
       -0.021246394 0.022703921 0.08223691 -0.002370293
0000c0 36 80 0c 3d 42 9f 67 3d ad 1e fa bb ef fa eb 3b
       0.03430196 0.056548364 -0.0076330514 0.0072015445
0000d0 75 cf 36 3d b4 09 2c 3d e6 6a e6 3c 77 22 af 3c
       0.04463144 0.04200144 0.028127145 0.021378739
0000e0 64 38 b8 bc 31 2d 58 bd a6 90 03 3d 05 15 94 bd
       -0.022487827 -0.052777473 0.03212037 -0.07230572
0000f0 2c f8 c2 3d 02 3d b8 bc d6 66 be bc 0b 39 20 3d
       0.09519991 -0.022490028 -0.023242395 0.0391169

encoder.7.weight f4 [10, 1024]
000000 6c f0 ca bb 10 3f 2c 3c 40 85 21 3c 50 0a 0c bd
       -0.0061932113 0.010513082 0.009858429 -0.034189522
000010 eb 95 82 3c 69 f8 17 bb 53 e8 0e 3d b3 d8 8e 3a
       0.015940627 -0.0023188835 0.03488953 0.0010898322
000020 df ee fc 3b e3 c3 51 bd 89 64 fa bb 1e 70 c6 bc
       0.0077189053 -0.051212203 -0.0076413793 -0.024223384
000030 2e 5a 44 bd 64 ce fa bb 60 4d 55 bd 8d 6c b0 bc
       -0.047937565 -0.007653998 -0.052075744 -0.021536136
000040 f9 89 53 bd 30 cb 70 3c 5b b9 29 bd 21 39 24 bd
       -0.051645253 0.014696881 -0.041436534 -0.040093545
000050 f0 47 4a 3b 85 a4 6a bc e0 45 a5 bc 25 6d a5 3b
       0.0030865632 -0.014321451 -0.02017492 0.0050484114
000060 15 b0 61 bd 1f 63 20 bd 78 95 51 bd a9 42 d6 bc
       -0.055099566 -0.03915703 -0.051167935 -0.026154833
000070 46 26 59 3b e6 41 69 bc 45 7d 30 ba 14 fe 41 bd
       0.0033134385 -0.014236903 -0.0006732534 -0.04736145
000080 f3 fa 82 3c 2e ea db 3c 5d 60 f9 bc ff fc 38 bd
       0.015988803 0.026845064 -0.030441457 -0.04516315
000090 c8 05 05 bd a0 ba 1d 3b 24 01 f9 3b 71 a0 28 bd
       -0.032476217 0.0024067536 0.007599013 -0.041168634
0000a0 2d 8b df bb 8e 2c 20 bd 08 cd 2a bd e9 ca 0c bd
       -0.006822011 -0.03910499 -0.04169944 -0.034373198
0000b0 e7 28 bd bc e1 de f4 bc 35 f5 6b bd b2 b2 71 bc
       -0.023090793 -0.029891433 -0.057606895 -0.014752077
0000c0 28 f2 eb 3b 74 ec 0e bc 00 af 1e 3b 18 28 1c 3c
       0.007200498 -0.008723367 0.0024213195 0.0095310435
0000d0 7c 93 fb 3c e0 d5 eb 3a 58 33 af bc 80 58 56 3c
       0.030709974 0.0017992817 -0.021386787 0.0130826235
0000e0 10 94 10 bb a4 b7 a2 3c 00 11 92 3b b0 cd f1 3b
       -0.0022060908 0.019862957 0.004457593 0.007379256
0000f0 10 be f9 bc 78 d8 6d bc b0 fa 04 bc 78 f6 32 bc
       -0.030486137 -0.014516942 -0.008116409 -0.010923021
000100 f1 62 de 3a 68 21 06 bc 06 d7 9d bc 90 15 62 bc
       0.0016966743 -0.008186676 -0.01926757 -0.013799086
000110 38 cb 07 3a 7f 56 d5 bc 3d f7 12 bb ea 4c 0f 3d
       0.0005180123 -0.026042221 -0.0022425198 0.03498546
000120 34 24 20 bc 3c bc 3b 3c 1d 37 5d bd c3 e7 6d bd
       -0.0097742565 0.011458453 -0.05400764 -0.058082353
000130 81 bf cf bc 9d b2 79 bd 6c b5 ba bc 51 2f 34 3a
       -0.02535987 -0.060961355 -0.022791587 0.0006873506
000140 9b d3 db bc e1 7b a3 bb 48 a2 59 bd 84 5d 50 bd
       -0.0268343 -0.0049891328 -0.05313328 -0.050870433
000150 08 12 00 bc dd c3 b5 3b d7 e5 d6 bc 35 ed 10 bd
       -0.007816799 0.0055470304 -0.026232643 -0.03538247
000160 22 94 b7 bc df 79 be bc 6c f8 bc 3b 2f 68 98 3b
       -0.022409502 -0.023251472 0.005766919 0.0046510915
000170 cd ab 04 bc 21 d1 aa bc 8c c5 5a bb 10 10 33 bd
       -0.008097601 -0.020851674 -0.0033381907 -0.04371649
000180 30 27 f2 bc f2 08 8a bc 86 7d 38 bb ef 46 13 bd
       -0.029559702 -0.016849969 -0.002815099 -0.03595632
000190 da 9a ae bc eb d8 56 bc c8 ff 3c bd 55 0d f8 bc
       -0.021314073 -0.013113241 -0.04614237 -0.030279795
0001a0 58 35 f0 3b 0f 26 8f 3c 33 f2 ef 3c 45 c1 09 bd
       0.007330578 0.017474202 0.029290294 -0.03363158
0001b0 34 ac 84 ba d4 d5 c7 bc 03 8c b6 bb 71 94 4d bd
       -0.0010122121 -0.024393953 -0.00557089 -0.050190393
0001c0 28 c6 60 bd 05 22 17 bd 15 5d 03 bd 21 ad 9b 3a
       -0.054876477 -0.036897678 -0.03207119 0.0011877158
0001d0 b8 9f a9 3c 76 2f 2b bb be 67 a9 bc 30 e3 38 bc
       0.020706043 -0.0026120818 -0.020679351 -0.0112846345
0001e0 f7 6b b5 bb 3b f7 16 bd 8f 3c 52 bd 1a 4d 49 bb
       -0.005536552 -0.03685687 -0.051327284 -0.0030716122
0001f0 52 b2 ac 3b db 5b 2b bc 32 35 0c bd 68 28 48 bd
       0.005270281 -0.010458912 -0.03423042 -0.04886666
000200 31 a3 a7 3b 16 c3 f6 bb e3 ce 10 bc 54 09 64 bc
       0.0051158895 -0.0075305803 -0.008838388 -0.01391824
000210 62 fe 03 bd 32 5a 33 3b ff 19 08 3c ac 41 dc bc
       -0.03222502 0.0027366993 0.008306979 -0.026886784
000220 c8 c1 23 bd 9d 7b 0b bd 00 14 03 3b 2a 77 36 bd
       -0.039979726 -0.034053434 0.0020000935 -0.044547237
000230 a6 b6 45 bb 67 11 4f bd ba 4f bb bb 06 c4 f3 bc
       -0.0030168681 -0.050553706 -0.0057162913 -0.029756557
000240 1b 37 ee ba 22 0b 2a bd 1e b7 cd bc 85 e4 69 bd
       -0.0018174382 -0.041514523 -0.025111731 -0.0571027
000250 c3 ec 84 bc a7 9e 47 bd dc 8e dc bc bd ae 53 bd
       -0.016226178 -0.048735287 -0.02692359 -0.051680315
000260 c6 7e 10 bd 6c 92 0b bd 14 d8 c7 bc 39 0f 73 bd
       -0.03527715 -0.034075186 -0.024395026 -0.05934069
000270 c5 ce a7 3c 44 5d 9f bc ba 2a 1e bd af a1 3a bc
       0.020484338 -0.019453652 -0.038614966 -0.011391087
000280 2f 90 2d bb dd 56 ae 3c a8 40 91 3c 66 b4 e8 bc
       -0.0026483645 0.021281654 0.017731026 -0.028406333
000290 cb 86 21 3c d9 b9 63 bd 4c ce 7e bc 99 9d df bb
       0.009858797 -0.05559716 -0.015552115 -0.006824207
0002a0 bd 9d 38 bd 58 a2 5b bd 23 18 ac bb 15 f7 19 bd
       -0.045072306 -0.05362162 -0.0052519008 -0.03758915
0002b0 bb 77 1b bd 91 d7 40 3a a8 1d 27 bc bb 3e 15 bd
       -0.03795598 0.00073563406 -0.010199942 -0.036436778
0002c0 fd ed f8 bc 8e 91 3c bd 90 51 26 3b af f6 7c bc
       -0.03038692 -0.04603725 0.0025378205 -0.015439673
0002d0 7f 25 75 bd d4 f9 03 bd 41 3f 24 bd 43 d0 84 bc
       -0.059850212 -0.032220677 -0.040099386 -0.016212588
0002e0 46 2b 66 bc 95 2d 0f bb 3e ed 00 bd 20 8b 56 bc
       -0.014048403 -0.0021847237 -0.03147625 -0.013094693
0002f0 bb bc 16 bd ad b6 f3 bb 4a 6a e1 bc 0a b5 ec bc
       -0.03680108 -0.007437548 -0.027516503 -0.02889492
000300 26 9f 20 bd 14 33 3c 3a 4a ab 86 bb 61 11 44 bd
       -0.039214276 0.0007179242 -0.0041097747 -0.047868136
000310 e7 ab 07 bd 12 6f 14 bd c3 48 66 bd 21 fa 61 bc
       -0.033122923 -0.036238737 -0.056221735 -0.013792546
000320 31 1c 0d bd 34 27 58 bd 04 1d 7f bc 6d 1d 57 bd
       -0.034450714 -0.052771762 -0.015570883 -0.052518297
000330 72 84 6c bd 70 04 56 bc eb 37 54 bb 94 aa 1e bd
       -0.057743497 -0.013062581 -0.0032381963 -0.038736895
000340 3b ba 3a 3d 69 c0 41 bd 04 44 04 bd e5 5b 20 bd
       0.04558776 -0.047302637 -0.032291427 -0.039150137
000350 7e 75 2f bd cd 7b 14 bd d5 30 f8 3b 1f a0 45 bd
       -0.04283666 -0.036250878 0.0075741806 -0.048248406
000360 2f 56 54 bd 9e a3 aa bc 34 c2 f8 bb ed 40 b9 bc
       -0.051840004 -0.020829972 -0.00759151 -0.022613967
000370 e0 23 54 bd c1 78 b5 bb 5b ee cf bc ff e7 6d bc
       -0.051792026 -0.0055380766 -0.025382211 -0.014520644
000380 7b ac 1c bd fb 2e 64 bd 6c d5 ec 3c d6 9f b1 3b
       -0.038250428 -0.055708867 0.028910361 0.0054206653
000390 5e 88 37 3d 3e 94 4b 3b 13 0c 52 bc 17 77 65 bd
       0.044807784 0.00310637 -0.0128202615 -0.056021776
0003a0 c5 fd 7a bc 7c b4 80 bd c3 4c 57 bd 2c d9 21 bd
       -0.015319292 -0.06284425 -0.05256344 -0.039513752
0003b0 05 a1 f6 bb 37 11 b9 39 f5 fb bc bc dd 3a 34 bd
       -0.0075265192 0.00035298776 -0.023069361 -0.04400145
0003c0 db 74 92 bc 81 31 4a 3b 74 8a 48 3b b3 51 67 bc
       -0.017877987 0.003085226 0.0030600103 -0.0141186
0003d0 fd 2f 86 ba 39 37 3d bd f4 ec 32 bd ea 7b 7c bc
       -0.001023769 -0.046195243 -0.043683007 -0.015410403
0003e0 6a a2 55 3b 3d bf 51 bd e3 d4 af 39 e4 56 0e 3c
       0.0032598027 -0.05120777 0.00033537214 0.0086877085
0003f0 7b 0b b4 bc 39 c6 50 bb 4d 5e 1d bd 8b a0 08 bd
       -0.02197813 -0.003185643 -0.03842001 -0.03335623

encoder.7.bias f4 [10]
000000 61 fc 51 bd 00 59 86 3c 85 61 60 bc a1 a2 8b 3d
       -0.051266078 0.01639986 -0.0136951255 0.068181284
000010 ec 12 1c bd 38 62 86 bc ca 24 92 3d fa 13 f4 3c
       -0.038103983 -0.016404256 0.07135923 0.029794682
000020 b2 5f ea bc 08 4f 37 3d
       -0.028610084 0.044753104
