딥러닝호형/models/dkm_de.pth (torch, 140549 bytes, 7 tensors)

decoder.0.weight f4 [1024, 10]
-0.21079975 -0.049768716 -0.26717827 0.3143788 -0.10822959 -0.3112451 0.050233893 0.06768504
-0.050096005 -0.021829005 -0.07554037 0.019399818 -0.16774885 0.0913991 0.23329276 -0.09112478
0.10782152 0.1282151 -0.12108378 0.282324 0.1370214 0.11837855 -0.30083644 -0.14046118
-0.19427398 -0.106843695 0.14319079 0.10770542 -0.23428169 0.18594678 0.15224195 0.104688436
0.024790464 0.2168507 -0.20576784 -0.20847984 0.1702492 -0.17710336 0.05143737 -0.16646871
-0.057955943 -0.26326242 -0.31929827 0.2601729 0.31535798 -0.2756721 0.08098711 0.15330957
-0.26808178 0.21360447 -0.10867945 0.25178736 -0.13276435 -0.58357733 0.0100423945 0.23506412
0.22023387 -0.60546863 0.23834947 0.03125997 0.17853191 0.16851945 -0.21772227 0.014184736
0.11737363 0.18553619 0.10759632 -0.45359468 0.068572536 0.23891889 0.22951767 -0.19454738
0.031580232 0.016249347 -0.18438554 0.040669784 0.2508953 -0.103564225 0.13468619 -0.37606317
-0.2425558 -0.14127323 0.17237517 0.26014182 -0.10351378 -0.10804141 0.348849 -0.07939518
-0.24585323 -0.19398277 0.07927213 0.18222798 0.123273484 -0.1575781 0.23878476 -0.1394797
0.1259183 0.3102358 -0.1583906 0.2319146 0.25179094 -0.43619478 -0.20406286 0.13529472
0.21585867 0.060198862 0.11151716 0.11255476 0.25747484 -0.11513444 -0.23898906 0.38053524
0.20411034 -0.5769257 -0.117778555 -0.08685085 0.15226433 -0.011799521 0.019544913 -0.14187127
-0.06336477 0.3261779 -0.2738336 0.18848853 -0.058047265 -0.061905112 -0.030688401 -0.09046809
0.08271612 -0.042791042 -0.14202173 0.036435515 -0.31049743 0.10081664 0.083227366 -0.17978534
0.21119657 0.31389266 0.22432016 -0.14370966 0.021119015 -0.16450424 -0.103087224 0.048270624
0.083894774 -0.18362406 0.1600932 0.1412494 -0.26814938 0.13518147 0.30726326 -0.44433075
-0.15066543 0.40632284 0.236123 -0.31554827 -0.035967804 0.13466026 0.0011004632 -0.081030175
-0.038661506 0.055403374 -0.258378 -0.19511844 -0.19450758 -0.16965702 -0.10836755 0.24188732
-0.21962112 0.19936952 0.15638521 0.23692133 -0.033497695 -0.15994139 -0.018088596 -0.0051721875
0.15625615 -0.067084916 -0.1916967 0.04643805 0.09523412 -0.15850177 0.019246727 0.27876198
0.28014675 -0.043442976 -0.09601244 -0.028509539 -0.2633391 0.09349431 -0.3479914 -0.020266382
-0.25108206 0.28300312 0.1728054 -0.14134261 0.23525698 0.2467933 0.07127452 -0.24142613
0.04168155 0.1849691 -0.28410044 0.043683782 -0.09788021 0.30290726 -0.036307886 -0.045914948
0.27142027 0.18977953 -0.11733549 0.08854287 0.1806543 0.1718356 -0.0343805 0.0486486
-0.04407575 0.06843985 -0.20065355 -0.072740056 0.17282939 -0.22080138 -0.12641023 -0.49629527
-0.11218106 0.11357095 0.27803707 -0.05902755 0.15947185 0.5429803 0.07567846 -0.26718673
-0.21428473 -0.28647238 -0.24308512 -0.3026747 -0.07352259 -0.24855721 0.049701463 0.19881934
0.09702347 -0.36445856 0.15275285 -0.1558314 -0.21477284 -0.120772 0.19820358 -0.12281693
0.21568199 0.3299705 -0.004859613 0.22989994 0.2471358 -0.05348933 0.17898142 -0.26860994
00000000: e4db 57be 48da 4bbd 97cb 88be 42f6 a03e
00000010: 7aa7 ddbd 855b 9fbe 0ec2 4d3d 749e 8a3d
00000020: 7831 4dbd bed2 b2bc e9b4 9abd 5eec 9e3c
00000030: 5bc6 2bbe 742f bb3d 4ce4 6e3e a19f babd
00000040: 87d1 dc3d d24a 033e c6fa f7bd c58c 903e
00000050: 564f 0c3e 7470 f23d 3c07 9abe 0ed5 0fbe
00000060: c2ef 46be ded0 dabd 9ba0 123e a994 dc3d
00000070: 8ae7 6fbe d568 3e3e 50e5 1b3e e466 d63d
00000080: 5f15 cb3c 1c0e 5e3e ceb4 52be bd7b 55be
00000090: ce55 2e3e 955a 35be feaf 523d c676 2abe
000000a0: 3663 6dbd 55ca 86be 107b a3be 6235 853e
000000b0: 9a76 a13e e524 8dbe 92dc a53d 2ffd 1c3e
000000c0: 0442 89be 21bb 5a3e 5593 debd 46ea 803e
000000d0: 61f3 07be 5365 15bf db88 243c a6b4 703e
000000e0: fd84 613e feff 1abf e211 743e 740a 003d
000000f0: 12d1 363e 5d90 2c3e 96f2 5ebe 1867 683c
00000100: 9661 f03d 33fd 3d3e 765b dc3d 903d e8be
00000110: c26f 8c3d 27a7 743e ae06 6b3e 6e37 47be
00000120: 465a 013d 5a1d 853c 90cf 3cbe 5c95 263d
00000130: 5975 803e 7b19 d4bd 2deb 093e 5a8b c0be
00000140: 8c60 78be eea9 10be 1e83 303e 4f31 853e
00000150: 08ff d3bd d144 ddbd 569c b23e f199 a2bd
00000160: f3c0 7bbe 6ba3 46be 6d59 a23d f999 3a3e
00000170: cf76 fc3d 275c 21be fe83 743e c4d3 0ebe
00000180: baf0 003e 3ad7 9e3e 2531 22be 057b 6d3e
00000190: beea 803e ec54 dfbe dbf5 50be b38a 0a3e
000001a0: 0e0a 5d3e 1593 763d 1c63 e43d 1c83 e63d
000001b0: bed3 833e 9bcb ebbd 8cb9 74be 84d5 c23e
000001c0: 4d02 513e 67b1 13bf e235 f1bd dcde b1bd
000001d0: 2eeb 1b3e c752 41bc a71c a03c b446 11be
000001e0: 63c5 81bd ca00 a73e eb33 8cbe 2303 413e
000001f0: f8c2 6dbd 3790 7dbd 3e66 fbbc 5547 b9bd
00000200: 1267 a93d a945 2fbd 256e 11be 683d 153d
00000210: 85f9 9ebe f478 ce3d 1c73 aa3d a619 38be
00000220: ea43 583e 8ab6 a03e 2fb4 653e a028 13be
00000230: c901 ad3c cd73 28be 651f d3bd 6bb7 453d
00000240: 06d1 ab3d f207 3cbe 79ef 233e afa3 103e
00000250: e04a 89be 036d 0a3e 9c51 9d3e 527f e3be
00000260: 0a48 1abe 8c09 d03e 3aca 713e 8b8f a1be
00000270: fa52 13bd 61e4 093e 6b3d 903a 26f3 a5bd
00000280: 875b 1ebd a6ee 623d 1f4a 84be 21cd 47be
00000290: ff2c 47be 92ba 2dbe ceef ddbd 4fb1 773e
000002a0: 5ce4 60be 8627 4c3e 7223 203e 819b 723e
000002b0: e134 09bd adc7 23be 892e 94bc 747b a9bb
000002c0: 9d01 203e d163 89bd 244c 44be d335 3e3d
000002d0: 1b0a c33d 4a4e 22be 50ab 9d3c e4b9 8e3e
000002e0: 656f 8f3e 43f1 31bd 2ca2 c4bd d68c e9bc
000002f0: 62d4 86be f279 bf3d ee2b b2be af05 a6bc
00000300: d48d 80be c9e5 903e e6f3 303e 1ebc 10be
00000310: 35e7 703e 62b7 7c3e 60f8 913d 6938 77be
00000320: 46ba 2a3d 8a68 3d3e 9d75 91be c4ed 323d
00000330: 6b75 c8bd a916 9b3e 94b7 14bd 5011 3cbd
00000340: 99f7 8a3e 9155 423e 974d f0bd f755 b53d
00000350: 71fd 383e acf5 2f3e 91d2 0cbd c143 473d
00000360: c688 34bd 312a 8c3d 2078 4dbe bdf8 94bd
00000370: 30fa 303e c219 62be af71 01be 6a1a febe
00000380: 2fbf e5bd e397 e83d e05a 8e3e dfc6 71bd
00000390: 974c 233e c200 0b3f 4ffd 9a3d b3cc 88be
000003a0: 756d 5bbe 82ac 92be 4eeb 78be 2ef8 9abe
000003b0: 0393 96bd c885 7ebe c393 4b3d 4c97 4b3e
000003c0: 3eb4 c63d 509a babe 3e6b 1c3e 4492 1fbe
000003d0: 69ed 5bbe 4f57 f7bd e1f5 4a3e 7187 fbbd
000003e0: bddb 5c3e e5f1 a83e 633d 9fbb e46a 6b3e
000003f0: 2b11 7d3e a117 5bbd e846 373e 3e87 89be

decoder.0.bias f4 [1024]
-0.32208684 -0.121686414 -0.48819274 0.06680131 -0.064831264 0.45493898 -0.031272657 0.41989356
0.5289252 -0.08256352 0.101268515 0.5788139 0.21407117 -0.6468367 -0.54651344 0.16874546
0.012653455 -0.38562286 0.17398266 0.18882328 0.3948268 -0.02347971 -0.48929396 0.08750222
0.03393343 0.4123262 0.031094652 0.36465025 0.032586347 -0.3276357 0.41306403 0.26385438
0.4910912 -0.0001804093 0.18582602 0.36506313 0.29748607 0.18032876 -0.43283102 -0.40469256
0.17506707 0.10133921 -0.12965709 0.2911472 -0.25073823 0.27307802 -0.2460791 0.3221404
-0.117777444 0.37832606 0.2383948 0.4719997 0.06181244 -0.062479906 0.007936635 0.16143999
-0.12300035 -0.08842185 -0.51752824 0.07535374 0.05252252 -0.60355276 -0.4177652 -0.08039451
0.0042412537 0.17322893 0.42276913 0.16804945 -0.03450442 0.24449201 -0.24605012 0.10528289
-0.42456412 -0.014968543 0.20071292 -0.10953836 -0.1261907 -0.04519172 -0.20985909 0.025478551
0.30435634 0.2511916 -0.44912627 -0.0040978794 0.40430638 0.18101925 -0.19085829 0.27766398
-0.09442475 -0.053076755 -0.32111448 0.604932 0.039322264 0.10439188 0.015581629 -0.11684594
0.24758932 0.14232245 0.7657076 -0.29239392 -0.18401173 0.107241064 0.37155816 0.25139165
0.66293997 -0.20255306 0.015735576 0.67041934 -0.40761358 -0.017940227 -0.6527014 0.046568047
-0.033386853 -0.03856926 -0.3169334 -0.13388982 0.13959323 -0.42822975 0.45239657 -0.059974175
-0.088891 -0.027102366 0.15287255 0.43936625 -0.07722438 -0.2838185 0.14595376 0.04218009
-0.012509762 -0.3545694 0.4309217 0.34343463 0.16599931 -0.4931021 0.21782437 0.2681886
-0.011910509 0.20582452 0.5561214 0.17331943 -0.0018743918 -0.6980876 0.42368537 0.27082515
0.34783763 -0.62608993 0.03401929 0.10502342 0.15775432 0.15923366 -0.42829248 -0.4813759
0.24030241 -0.3872164 0.09858851 -0.27737957 -0.02693981 -0.66541433 -0.27211696 -0.23240086
-0.01606953 0.3587057 -0.24711029 -0.3412809 0.14761443 -0.39237633 -0.14464971 -0.22893664
-0.17178503 0.46965137 -0.2810701 -0.4019495 0.057522245 0.51711106 -0.044640675 -0.25430694
-0.22793469 0.10497946 -0.12151284 -0.258302 0.031168453 0.14614272 -0.31793046 -0.16636287
-0.085454665 0.61784804 -0.26125157 -0.10944334 -0.34303975 0.33383918 -0.2568059 -0.3409437
0.3530488 -0.26066804 0.25309405 0.28291318 -0.15656696 -0.081197314 0.13639013 0.20944068
0.06550434 0.014634456 -0.3909928 0.3412781 0.09209191 0.004851057 0.16307291 -0.107022956
-0.15695885 -0.1450793 -0.044781905 0.2653712 -0.06917923 -0.05961395 -0.52529734 0.12140252
-0.4196132 -0.05487211 -0.22166745 -0.081034355 -0.06847452 0.08308829 0.09270057 0.06355369
-0.4123554 -0.1316389 0.29287705 0.22590594 0.07094967 0.38806215 0.31557465 0.0750959
0.14562078 -0.11064478 -0.0041347807 0.39887428 -0.12090255 -0.17355484 0.1487241 -0.087271765
0.03732669 -0.31543675 -0.048961695 -0.2670382 0.39278984 0.35240766 -0.5762651 0.2842001
0.3482036 -0.11457229 0.27387598 0.16855548 0.3790665 0.22883978 0.28869355 -0.18410029
00000000: 91e8 a4be ba36 f9bd 66f4 f9be 20cf 883d
00000010: 41c6 84bd c3ed e83e c217 00bd 4afc d63e
00000020: a467 073f 1017 a9bd de65 cf3d 262d 143f
00000030: 7935 5b3e 1797 25bf 4ee8 0bbf 9ccb 2c3e
00000040: 7050 4f3c 5c70 c5be 8328 323e e45a 413e
00000050: bd26 ca3e 8558 c0bc bd84 fabe 5d34 b33d
00000060: c8fd 0a3d 6b1c d33e 36ba fe3c 70b3 ba3e
00000070: 4379 053d debf a7be 217d d33e ec17 873e
00000080: 4e70 fb3e 412c 3db9 2d49 3e3e 8ee9 ba3e
00000090: 1850 983e 1aa8 383e 079c ddbe dd33 cfbe
000000a0: c844 333e ef8a cf3d d4c4 04be 3f11 953e
000000b0: c360 80be e2d0 8b3e 29fc 7bbe 96ef a43e
000000c0: 4d35 f1bd f4b3 c13e c41d 743e f2a9 f13e
000000d0: 0b2f 7d3d eeea 7fbd a908 023c 8650 253e
000000e0: 9ce7 fbbd 8416 b5bd bb7c 04bf 1053 9a3d
000000f0: db21 573d 6f82 1abf 52e5 d5be e0a5 a4bd
00000100: 37fa 8a3b ed62 313e 3275 d83e 2815 2c3e
00000110: 8254 0dbd 1d5c 7a3e 90f4 7bbe 8e9e d73d
00000120: 7860 d9be 9f3e 75bc b087 4d3e a655 e0bd
00000130: 2338 01be f41a 39bd 4de5 56be 65b8 d03c
00000140: 98d4 9b3e 2f9c 803e e1f3 e5be 8147 86bb
00000150: 3f01 cf3e 1c5d 393e 5b70 43be f929 8e3e
00000160: c361 c1bd 0367 59bd 1e69 a4be d3dc 1a3f
00000170: 6210 213d 69cb d53d 174a 7f3c ed4c efbd
00000180: 0e88 7d3e fabc 113e 6a05 443f a8b4 95be
00000190: 926d 3cbe 34a1 db3d df3c be3e 68b6 803e
000001a0: 6fb6 293f 126a 4fbe e5e7 803c 9aa0 2b3f
000001b0: bab2 d0be 62f7 92bc 7017 27bf 23be 3e3d
000001c0: a7c0 08bd cdfa 1dbd 1845 a2be 6a1a 09be
000001d0: 87f1 0e3e ee40 dbbe 86a0 e73e 7ba7 75bd
000001e0: 7c0c b6bd c805 debc 9f8a 1c3e 9df4 e03e
000001f0: d127 9ebd a950 91be e774 153e 08c5 2c3d
00000200: bff5 4cbc 1f8a b5be c5a1 dc3e aad6 af3e
00000210: b9fb 293e e177 fcbe 5a0d 5f3e 0450 893e
00000220: 4c24 43bc aac3 523e f95d 0e3f a67a 313e
00000230: 27ae f5ba deb5 32bf 4aed d83e 98a9 8a3e
00000240: c617 b23e 6e47 20bf d057 0b3d 8516 d73d
00000250: 598a 213e 260e 233e 2749 dbbe e776 f6be
00000260: d611 763e 3a41 c6be c6e8 c93d b204 8ebe
00000270: e0b0 dcbc 9858 2abf ea52 8bbe 7efa 6dbe
00000280: 3fa4 83bc 46a8 b73e 7b0a 7dbe 5fbc aebe
00000290: 3d28 173e 8de5 c8be 0e1f 14be 5e6e 6abe
000002a0: 6ae8 2fbe 2576 f03e 6ce8 8fbe 53cc cdbe
000002b0: 729c 6b3d 6461 043f 24d9 36bd 8534 82be
000002c0: b667 69be 79ff d63d b9db f8bd 2940 84be
000002d0: fc54 ff3c 70a6 153e c8c7 a2be 075b 2abe
000002e0: db02 afbd 4a2b 1e3f c4c2 85be d423 e0bd
000002f0: e8a2 afbe f8ec aa3e 107c 83be 2c90 aebe
00000300: d0c2 b43e 4876 85be 8b95 813e ffd9 903e
00000310: 1753 20be c74a a6bd dba9 0b3e 9e77 563e
00000320: 2427 863d 5bc5 6f3c 3530 c8be 01bc ae3e
00000330: af9a bc3d 9ef5 9e3b 96fc 263e da2e dbbd
00000340: d2b9 20be ab8f 14be 3b6d 37bd bcde 873e
00000350: d7ad 8dbd c22d 74bd e379 06bf e2a1 f83d
00000360: 8bd7 d6be 94c1 60bd cbfc 62be 57f5 a5bd
00000370: 5f3c 8cbd 322a aa3d ccd9 bd3d 7028 823d
00000380: 3f20 d3be 59cc 06be fbf3 953e e353 673e
00000390: 104e 913d 15b0 c63e 0093 a13e e1cb 993d
000003a0: 9d1d 153e bb99 e2bd 0e7d 87bb 4039 cc3e
000003b0: c29b f7bd 5cb8 31be 214b 183e 8abb b2bd
000003c0: dfe3 183d ed80 a1be 0f8c 48bd 3bb9 88be
000003d0: c01b c93e c76e b43e 1c86 13bf ad82 913e
000003e0: be47 b23e e0a4 eabd 7939 8c3e cf99 2c3e
000003f0: 0115 c23e fa54 6a3e a4cf 933e c984 3cbe

decoder.3.weight f4 [64, 32, 3, 3]
-0.09653049 -0.0784758 -0.025632285 -0.015506096 -0.1272396 -0.094543286 0.13034047 -0.09879052
-0.13418645 0.018995024 -0.0074226363 -0.033685636 0.101513855 -0.10696077 -0.06723982 0.19183318
0.04052141 -0.016046636 -0.16741878 0.021913024 -0.045076076 0.17765577 -0.064591385 -0.016641026
0.10976727 -0.03870813 0.058293846 0.049019624 -0.047723304 -0.040906128 0.05831932 -0.080911145
0.069414176 0.08820714 -0.06650706 -0.104420766 0.035266284 -0.0076860613 -0.01920575 -0.013290814
-0.08260642 -0.08147723 0.02107638 -0.21377018 -0.18672349 0.02448738 0.062307213 0.014113846
0.076685384 -0.09250296 0.0028610735 0.14792062 -0.042410452 -0.07898308 0.025798092 0.008335985
-0.06045303 -0.0153719215 0.0024601126 -0.16446507 0.101959504 0.007702418 -0.069035895 0.069073565
-0.07127054 -0.035064522 0.03546156 -0.047202654 0.0133660445 -0.061130583 -0.02571869 -0.13831507
0.05742999 -0.10406369 0.027251335 -0.015450489 0.011701204 -0.011582495 0.02693154 -0.023272002
-0.056466408 -0.08172231 -0.06876455 -0.04636796 -0.022979286 -0.03797904 -0.14927606 0.045168288
-0.100391395 -0.118911006 0.016497556 0.009735181 -0.040981628 -0.01625318 0.024901826 0.00718429
0.010348248 0.0022798355 0.022402814 -0.26389515 -0.055793375 -0.069329225 -0.05894333 -0.0030319304
-0.072233416 -0.057294853 -0.058281556 -0.057407103 -0.047319733 -0.06286949 0.08927388 -0.012502561
-0.067575455 -0.007807019 0.037215337 0.0668936 -0.020714087 0.042231757 -0.03801676 -0.16926311
0.07065008 -0.064131565 -0.13316202 0.086225696 0.044874687 -0.08947229 0.085690595 -0.08859765
0.12876327 -0.018681813 -0.072144896 -0.0055660806 0.06591433 -0.10537956 -0.017987281 0.09509917
-0.007932469 0.019781075 0.02886187 0.0023046548 0.030984493 0.0024846066 -0.053635985 0.017910512
-0.023063557 0.02756255 -0.04544134 -0.09708006 -0.016675761 -0.10400096 -0.030820154 -0.08588256
-0.04045032 -0.095248 -0.052399997 -0.16735129 -0.114009045 -0.24834521 -0.20766427 -0.013617171
-0.043483812 -0.160723 0.105389856 0.0888528 0.09589906 -0.06384761 0.04398834 -0.008742868
-0.055174712 -0.052346352 -0.057111245 0.09441608 0.016872257 -0.046614785 0.14194189 -0.03686685
-0.15666659 0.08364101 -0.022510223 -0.04550768 0.037682515 0.028557898 -0.021583736 0.092972085
0.025128065 -0.091436185 0.025090657 0.0040175905 -0.056453936 0.13291942 0.040030792 1.9458987e-05
0.12850328 0.04027607 -0.04967907 0.0030350988 -0.005305607 -0.1885571 -0.05289445 0.054815114
0.04053367 -0.06345949 0.05632457 -0.010326553 0.0068193814 -0.06324116 -0.006866031 0.14099364
0.009440068 0.0460518 -0.0016634555 -0.024172777 -0.23049806 -0.029716114 -0.012700305 -0.10539977
0.005741249 -0.031037819 0.098736756 -0.017223047 -0.04114859 -0.047299188 -0.00024859418 -0.025422182
-0.07774525 0.02919702 0.0023732448 0.03688476 0.046638217 -0.067230955 -0.008585147 -0.010017466
0.013561053 -0.042310506 -0.013033677 0.024809683 0.009477721 -0.038393497 0.114643306 0.011630703
0.038119562 0.02829682 0.0535827 0.046377104 -0.07255756 0.0261729 0.012343812 -0.019633783
-0.09372597 0.003375482 -0.031500775 -0.083772436 0.0049439925 -0.06520541 -0.06689741 -0.028003408
00000000: c7b1 c5bd ecb7 a0bd ccfa d1bc 480d 7ebc
00000010: 194b 02be e99f c1bd f977 053e af52 cabd
00000020: 2c68 09be 749b 9b3c 9639 f3bb f3f9 09bd
00000030: 7fe6 cf3d 400e dbbd 08b5 89bd eb6f 443e
00000040: c7f9 253d 3c74 83bc d46f 2bbe f182 b33c
00000050: b1a1 38bd 65eb 353e 7d48 84bd c352 88bc
00000060: aacd e03d 6b8c 1ebd 87c5 6e3d cdc8 483d
00000070: 8379 43bd 2f8d 27bd 3de0 6e3d beb4 a5bd
00000080: 0529 8e3d f2a5 b43d da34 88bd 8eda d5bd
00000090: 6173 103d 5bdb fbbb 6155 9dbc b7c1 59bc
000000a0: 8e2d a9bd 89dd a6bd 5fa8 ac3c 92e6 5abe
000000b0: 7134 3fbe c299 c83c d935 7f3d c33d 673c
000000c0: 3a0d 9d3d 3172 bdbd d980 3b3b 8178 173e
000000d0: 95b6 2dbd e2c1 a1bd 8556 d33c a893 083c
000000e0: 999d 77bd 83da 7bbc d739 213b 8869 28be
000000f0: 25d0 d03d 9164 fc3b b162 8dbd 7176 8d3d
00000100: 4af6 91bd d19f 0fbd 2440 113d 9257 41bd
00000110: 41fd 5a3c 1064 7abd 01b0 d2bc 77a2 0dbe
00000120: b63b 6b3d 581f d5bd 313e df3c 0c24 7dbc
00000130: 68b6 3f3c 81c4 3dbc 889f dc3c eda4 bebc
00000140: 5249 67bd 075e a7bd 6ed4 8cbd 54ec 3dbd
00000150: 0e3f bcbc e98f 1bbd d3db 18be 6202 393d
00000160: 019a cdbd 9d87 f3bd e225 873c 4f80 1f3c
00000170: 5adc 27bd 6425 85bc eafe cb3c 316a eb3b
00000180: b38b 293c 4b69 153b 1b86 b73c 441d 87be
00000190: 9887 64bd 7bfc 8dbd 906e 71bd 5ab3 46bb
000001a0: 1def 93bd 02ae 6abd a4b8 6ebd b623 6bbd
000001b0: 56d2 41bd b8c1 80bd 39d5 b63d 8bd7 4cbc
000001c0: 0065 8abd 06d2 ffbb 1c6f 183d 83ff 883d
000001d0: 97b0 a9bc 35fb 2c3d 76b7 1bbd 4f53 2dbe
000001e0: fdb0 903d 6957 83bd a05b 08be 1997 b03d
000001f0: 85ce 373d 3f3d b7bd 8d7e af3d af72 b5bd
00000200: 85da 033e 9a0a 99bc b4c0 93bd ab63 b6bb
00000210: 18fe 863d 3dd1 d7bd 105a 93bc 5bc3 c23d
00000220: 30f7 01bc ec0b a23c ba6f ec3c b109 173b
00000230: 31d3 fd3c c8d4 223b 68b1 5bbd 11b9 923c
00000240: c9ef bcbc dbca e13c b320 3abd e9d1 c6bd
00000250: 9b9b 88bc 75fe d4bd 8c7a fcbc 32e3 afbd
00000260: 3caf 25bd 6211 c3bd 61a1 56bd 235e 2bbe
00000270: 937d e9bd 354e 7ebe f1a5 54be 8e1a 5fbc
00000280: 151c 32bd 9294 24be a3d6 d73d 75f8 b53d
00000290: ba66 c43d 89c2 82bd 1e2d 343d 3f3e 0fbc
000002a0: e1fe 61bd 2169 56bd 7bed 69bd 385d c13d
000002b0: b037 8a3c 25ef 3ebd 3759 113e b201 17bd
000002c0: 356d 20be fa4b ab3d 5c67 b8bc 4366 3abd
000002d0: fb58 1a3d 41f2 e93c 60d0 b0bc 2668 be3d
000002e0: 5fd9 cd3c e542 bbbd ec8a cd3c fea5 833b
000002f0: 3e3c 67bd 071c 083e 54f7 233d db3b a337
00000300: 5d96 033e 85f8 243d 487c 4bbd 82e8 463b
00000310: a8da adbb 1d15 41be daa7 58bd d085 603d
00000320: a206 263d 0df7 81bd 98b4 663d b430 29bc
00000330: 1e75 df3b 9584 81bd 71fc e0bb a360 103e
00000340: 84aa 1a3c d0a0 3c3d 4e08 daba fd05 c6bc
00000350: af07 6cbe 356f f3bc f114 50bc d6db d7bd
00000360: 1621 bc3b 0643 febc 7f36 ca3d 5917 8dbc
00000370: 6d8b 28bd cbbc 41bd bf55 82b9 2e42 d0bc
00000380: e738 9fbd 972e ef3c 7188 1b3b 7914 173d
00000390: b707 3f3d 62b0 89bd b7a8 0cbc 4c20 24bc
000003a0: 2e2f 5e3c c84d 2dbd 348b 55bc ad3d cb3c
000003b0: 7148 1b3c 8042 1dbd 1cca ea3d b48e 3e3c
000003c0: 4223 1c3d bcce e73c 8979 5b3d ebf5 3d3d
000003d0: 0f99 94bd 8d68 d63c b33d 4a3c 07d7 a0bc
000003e0: 67f3 bfbd 3137 5d3b f506 01bd e290 abbd
000003f0: 3701 a23b 6a8a 85bd 8201 89bd 6767 e5bc

decoder.3.bias f4 [32]
0.07863957 -0.030301923 -0.29822394 0.22925884 0.053877894 0.012717942 0.13267112 0.2548436
0.14672734 -0.02194073 -0.037685603 0.2275443 0.049260776 0.19059615 0.1435249 0.0038962949
0.039312385 0.11021091 0.05706302 -0.07989749 -0.007770207 0.076300316 -0.1903304 0.074166395
0.2661048 0.08298934 -0.076224916 0.08854278 0.1951724 0.0150848795 0.0027471099 0.011575068
00000000: c80d a13d bd3b f8bc cfb0 98be d4c2 6a3e
00000010: 11af 5c3d ea5e 503c f0da 073e dc7a 823e
00000020: b13f 163e 0cbd b3bc 385c 1abd 5f01 693e
00000030: abc5 493d a32b 433e 31f8 123e fb58 7f3b
00000040: 0606 213d 42b6 e13d eaba 693d 4ca1 a3bd
00000050: 389d febb 5743 9c3d f9e5 42be 8de4 973d
00000060: e33e 883e 51f6 a93d cf1b 9cbd eb55 b53d
00000070: 46db 473e 9226 773c db08 343b 5ba5 3d3c

decoder.5.weight f4 [32, 16, 3, 3]
-0.013752024 -0.16209762 0.21368195 -0.050561797 -0.108971015 0.35362327 -0.057044044 -0.048430033
0.3641808 0.11570387 -0.005412805 0.03777074 -0.20816329 0.011099213 0.2661211 0.28314695
0.2245173 0.09571193 -0.030598538 0.12865014 -0.030288912 -0.25233343 0.16398935 0.27965498
-0.18668385 0.05629771 0.020814292 -0.17213659 0.22388208 -0.025284575 -0.12034059 0.2175938
0.025086908 -0.1480726 0.10088868 -0.020262571 0.01507999 0.12160416 0.114598356 0.18979995
-0.03552479 0.1602348 -0.0066758525 0.18117157 0.041961394 0.049119446 0.030580752 -0.062136617
0.14133988 -0.043888412 -0.28010207 0.19441885 -0.043147724 0.12188879 -0.009319279 -0.054755732
0.01866176 0.0041523906 -0.16270177 -0.023374904 -0.044497743 -0.031169804 -0.017051551 -0.102670245
0.014693404 -0.07893303 -0.04139305 -0.27701867 -0.35606226 0.089173175 -0.17541821 -0.03918114
-0.01810633 0.10073748 -0.1414047 0.091061614 0.17950873 -0.07781702 -0.014275419 0.13238543
-0.107082404 0.10129828 -0.1416727 -0.0058399453 0.06314243 -0.03225532 0.19033544 -0.06960638
0.017270947 0.12637421 -0.22274914 0.16515519 0.49231336 0.33437893 0.39023414 -0.19547129
-0.045085922 0.2146517 0.24806827 -0.052617963 -0.09257974 0.0136747155 -0.059270415 -0.22640276
-0.19643912 -0.0065238653 -0.037997168 0.019040843 0.06392092 0.063664116 -0.19093107 0.13603479
0.040067673 0.12348529 -0.06001198 -0.16692175 -0.18596531 0.10130751 0.1804123 0.060059614
0.2097704 0.32084256 -0.007736995 0.1025663 0.24363473 0.10703581 0.05836972 -0.02728403
0.10737002 -0.006519253 -0.027461393 0.14374714 0.07249417 -0.08479719 0.0023675887 0.063606866
-0.050255314 0.10980373 0.1899387 0.3024508 -0.0010351314 0.11098178 0.22014305 0.07790603
-0.034779 0.028857494 -0.06711994 -0.16343048 -0.0006865854 -0.087876946 0.021050531 0.076729715
-0.022814069 -0.015822832 0.009114021 -0.030416105 0.11373695 0.042848807 -0.017122446 0.12942424
0.124348976 0.12522246 0.061684825 0.056426328 -0.0047589266 0.075957365 -0.004903574 -0.04744071
0.024390606 0.018378206 -0.02367805 -0.021505961 -0.006591413 -0.015127674 -0.0029361208 0.051544107
0.0074270503 0.06964414 0.05662513 -0.009575115 -0.06957773 0.0035390956 -0.041724917 0.06347328
-0.054064933 -0.09088318 0.040198065 0.10645499 0.09975035 -0.058114197 -0.4004458 -0.016092421
-0.168777 -0.091726795 0.19369903 -0.055413555 -0.09096055 0.088195354 0.01371069 0.042692836
0.032426056 0.010161701 -0.023327675 0.14685927 -0.1314829 -0.016597548 -0.052052837 -0.07263589
-0.07166649 -0.16353779 -0.13451138 0.035445146 0.04636185 0.09248636 -0.07789613 0.106967226
0.018087117 0.014219857 -0.13206504 0.07377332 0.14284475 -0.1898623 0.15821381 0.03045846
0.0019123078 -0.026942514 -0.09437572 0.09243925 -0.1875076 -0.06528115 -0.28500348 -0.20111257
-0.10977369 0.08183875 -0.04157513 -0.13726875 -0.13155292 -0.034498435 -0.13398334 -0.007856803
0.05897212 0.13893327 -0.06606692 -0.114002876 -0.009726994 0.062471505 -0.041795608 -0.020542687
0.1378651 -0.2853898 -0.15741053 -0.0478889 -0.107893184 -0.052105386 -0.052723635 -0.015197406
00000000: 2b50 61bc ebfc 25be 71cf 5a3e e319 4fbd
00000010: 322c dfbd 1c0e b53e 04a7 69bd 925e 46bd
00000020: e875 ba3e 27f6 ec3d e65d b1bb 7eb5 1a3d
00000030: c228 55be 79d9 353c 0641 883e a3f8 903e
00000040: dde7 653e 9e04 c43d c9a9 fabc ddbc 033e
00000050: 7420 f8bc d931 81be d3ec 273e f02e 8f3e
00000060: 0d2a 3fbe 6d98 663d bc82 aa3c 9344 30be
00000070: 5841 653e 9921 cfbc 2175 f6bd e9d0 5e3e
00000080: 0f83 cd3c 58a0 17be b99e ce3d b1fd a5bc
00000090: 1012 773c 9a0b f93d 8bb2 ea3d eb5a 423e
000000a0: 7182 11bd 9714 243e 1cc1 dabb 0a85 393e
000000b0: b6df 2b3d 7931 493d 7c84 fa3c f782 7ebd
000000c0: 67bb 103e 56c4 33bd 8a69 8fbe bc15 473e
000000d0: abbb 30bd d4a0 f93d e4af 18bc 8c47 60bd
000000e0: 8ce0 983c c710 883b 4b9b 26be ba7c bfbc
000000f0: 4443 36bd d157 ffbc b2af 8bbc c744 d2bd
00000100: 9abc 703c a4a7 a1bd c28b 29bd 64d5 8dbe
00000110: cb4d b6be 6da0 b63d d5a0 33be 677c 20bd
00000120: ba53 94bc 744f ce3d 65cc 10be 837e ba3d
00000130: 23d1 373e 885e 9fbd 72e3 69bc 0c90 073e
00000140: 054e dbbd 7975 cf3d a612 11be 035d bfbb
00000150: d150 813d 281e 04bd 4be7 423e ca8d 8ebd
00000160: cd7b 8d3c 3e68 013e 5a18 64be 711e 293e
00000170: 7f10 fc3e b733 ab3e c5cc c73e a029 48be
00000180: 04ac 38bd a8cd 5b3e 9c05 7e3e ef85 57bd
00000190: 729a bdbd ea0b 603c 89c5 72bd 20d6 67be
000001a0: 5627 49be 26c6 d5bb eba2 1bbd 8bfb 9b3c
000001b0: f9e8 823d 5562 823d 6f83 43be b44c 0b3e
000001c0: 001e 243d dbe5 fc3d 1fcf 75bd 89ed 2abe
000001d0: b16d 3ebe 507a cf3d 01be 383e 1201 763d
000001e0: 0dce 563e 7a45 a43e 9e86 fdbb 480e d23d
000001f0: 627b 793e 9735 db3d 1615 6f3d c282 dfbc
00000200: d0e4 db3d 759f d5bb b7f6 e0bc 7332 133e
00000210: d377 943d 26aa adbd 8c29 1b3b 5144 823d
00000220: 84d8 4dbd c7e0 e03d 4a7f 423e d5da 9a3e
00000230: 3fad 87ba 6a4a e33d 2e6d 613e 328d 9f3d
00000240: 6d74 0ebd 8d66 ec3c 2e76 89bd 525a 27be
00000250: f7fb 33ba d4f8 b3bd 2a72 ac3c 7824 9d3d
00000260: 92e4 babc e29e 81bc fa52 153c 322b f9bc
00000270: ebee e83d 3b82 2f3d 5f44 8cbc ca87 043e
00000280: adaa fe3d 513a 003e 3aa9 7c3d 4b1f 673d
00000290: c5f0 9bbb 898f 9b3d 29ae a0bb 3151 42bd
000002a0: cfce c73c e48d 963c 78f8 c1bc 452d b0bc
000002b0: c8fc d7bb 10da 77bc ef6b 40bb ea1f 533d
000002c0: 9d5e f33b 96a1 8e3d c1ef 673d f1e0 1cbc
000002d0: c57e 8ebd 2cf0 673b bfe7 2abd 47fe 813d
000002e0: 3173 5dbd f620 babd baa6 243d 1305 da3d
000002f0: e949 cc3d 2709 6ebd 3b07 cdbe 41d4 83bc
00000300: e1d3 2cbe 42db bbbd 0a59 463e 53f9 62bd
00000310: 8649 babd c49f b43d cda2 603c afde 2e3d
00000320: 2fd1 043d 437d 263c ae19 bfbc 4762 163e
00000330: 74a3 06be 95f7 87bc 5b35 55bd 20c2 94bd
00000340: e1c5 92bd 7376 27be 5abd 09be ee2e 113d
00000350: ece5 3d3d 7d69 bd3d 0288 9fbd a211 db3d
00000360: 6f2b 943c 67fa 683c 0f3c 07be 7716 973d
00000370: e545 123e 436b 42be cd02 223e 0584 f93c
00000380: 67a6 fa3a 8cb6 dcbc 0f48 c1bd ca50 bd3d
00000390: fe01 40be 20b2 85bd faeb 91be 74f0 4dbe
000003a0: 07d1 e0bd 139b a73d af4a 2abd 2e90 0cbe
000003b0: cfb5 06be 3b4e 0dbd ee32 09be d2b9 00bc
000003c0: c08c 713d 8644 0e3e 184e 87bd 577a e9bd
000003d0: f85d 1fbc 1fe2 7f3d df31 2bbd 2349 a8bc
000003e0: 822c 0d3e 9d1e 92be 3a30 21be 2727 44bd
000003f0: 1af7 dcbd 756c 55bd bdf4 57bd 8afe 78bc

decoder.5.bias f4 [16]
-0.038792174 0.10916048 0.15310396 0.10970759 0.123710215 -0.20071965 -0.105810195 -0.079777345
0.10289301 -0.029042592 0.22329044 -0.08321906 -0.060064036 0.12448468 -0.1919206 0.0619764
00000000: 8be4 1ebd 888f df3d 49c7 1c3e 5fae e03d
00000010: c85b fd3d 7489 4dbe 04b3 d8bd 4e62 a3bd
00000020: 92b9 d23d bbea edbc 40a6 643e c16e aabd
00000030: b505 76bd d3f1 fe3d d586 44be f7da 7d3d

decoder.7.weight f4 [16, 1, 3, 3]
-0.15625608 0.08774531 0.2415346 0.21109997 0.7501029 0.69686216 0.36067754 0.6224583
0.55211097 -0.0015056566 -0.34585252 -0.06216357 -0.27318642 -0.4780389 -0.37967134 -0.14631774
-0.36556867 -0.10711779 -0.42559487 -0.43110487 -0.3711905 -0.35020483 -0.40770078 0.123570666
0.10858455 0.06814265 0.07702475 -0.065596804 0.043322764 -0.21673776 -0.31288868 -0.22309437
-0.44003838 0.096452184 0.08768601 -0.2286613 0.066362046 -0.40824744 -0.37349147 -0.13514759
-0.5451936 -0.01197057 0.053721912 -0.33786014 -0.10587461 0.20277382 0.0794108 0.21622239
0.5894091 0.3530009 0.26221827 0.30101705 0.06666404 -0.1988115 0.15648276 0.18364264
0.0562536 0.4255823 0.54694295 0.078657396 0.18500887 0.33451208 0.09222181 0.30526316
0.5454219 0.07980556 0.50879765 0.6374387 0.037117325 0.12210534 0.1582481 -0.17455503
-0.43862024 -0.46467045 -0.06915879 -0.4184523 -0.22269447 0.02395884 -0.41227734 -0.1241566
-0.13106538 0.33317795 0.44977266 0.2921299 0.48007175 0.68836623 0.4305804 0.31071198
0.46581104 0.06223401 -0.12648691 -0.42219636 -0.15052232 -0.38651994 -0.7071784 -0.39857337
-0.28575197 -0.6406327 -0.1391197 -0.022558216 0.29411733 0.26247177 0.20175217 0.91367096
0.5135965 0.3060852 0.6242374 0.46285963 0.14691864 0.315496 0.16527309 0.31136298
0.24691768 0.004981019 -0.0917302 -0.3032628 -0.37129015 -0.13089952 -0.17216483 0.022550952
-0.07737499 -0.3869336 -0.27385482 -0.1653561 -0.06657884 -0.17585559 0.12627716 0.43469146
0.3869469 0.09055454 0.26151124 0.4572861 0.18887898 0.19499299 0.20763119 -0.116640784
-0.35251153 -0.43730775 -0.51781094 -0.7714873 -0.2288897 -0.31060246 0.088539824 -0.18625838
00000000: 9801 20be d0b3 b33d d954 773e 972a 583e
00000010: be06 403f 8f65 323f baaa b83e 6d59 1f3f
00000020: 2557 0d3f 7459 c5ba 9513 b1be 3a9f 7ebd
00000030: 17df 8bbe 84c1 f4be 4864 c2be 51d4 15be
00000040: d12b bbbe 9260 dbbd 92e7 d9be c7b9 dcbe
00000050: ae0c bebe 0c4e b3be 28be d0be 9e12 fd3d
00000060: 9461 de3d 608e 8b3d 27bf 9d3d 9e57 86bd
00000070: 3673 313d 81f0 5dbe f232 a0be da72 64be
00000080: b64c e1be b988 c53d b994 b33d 3026 6abe
00000090: d3e8 873d cf05 d1be 463a bfbe 2164 0abe
000000a0: cf91 0bbf 3620 44bc 820b 5c3d 01fc acbe
000000b0: cad4 d8bd f1a3 4f3e 21a2 a23d 6769 5d3e
000000c0: 84e3 163f 89bc b43e 7941 863e e81e 9a3e
000000d0: 2887 883d 3e95 4bbe 043d 203e d10c 3c3e
000000e0: 2d6a 663d ece5 d93e 7404 0c3f 2117 a13d
000000f0: f772 3d3e 2b45 ab3e cade bc3d 744b 9c3e
00000100: c5a0 0b3f 1971 a33d 9040 023f 2f2f 233f
00000110: 5608 183d 5d12 fa3d ca0b 223e 8ebe 32be
00000120: d592 e0be 49e9 edbe 20a3 8dbd 613f d6be
00000130: 050a 64be 5445 c43c 0416 d3be d145 febd
00000140: 0136 06be 4d96 aa3e 9a48 e63e 0d92 953e
00000150: f7cb f53e c538 303f 0975 dc3e a415 9f3e
00000160: c97e ee3e 17e9 7e3d c985 01be 1f2a d8be
00000170: 8622 1abe f1e5 c5be a509 35bf cf11 ccbe
00000180: 154e 92be 8100 24bf 6575 0ebe 02cc b8bc
00000190: 8c96 963e b362 863e 1f98 4e3e 57e6 693f
000001a0: 0f7b 033f 33b7 9c3e 06ce 1f3f f0fb ec3e
000001b0: d771 163e b188 a13e 593d 293e f86a 9f3e
000001c0: fdd7 7c3e d137 a33b 0bdd bbbd 4345 9bbe
000001d0: be19 bebe 860a 06be fa4b 30be c6bc b83c
000001e0: c776 9ebd 291c c6be b336 8cbe 1c53 29be
000001f0: 7d5a 88bd 7d13 34be cd4e 013e e18f de3e
00000200: e71d c63e a974 b93d cde4 853e 6721 ea3e
00000210: 7e69 413e 3eac 473e 459d 543e 5de1 eebd
00000220: 647c b4be cde6 dfbe 428f 04bf 3180 45bf
00000230: 1062 6abe 4907 9fbe 5e54 b53d 84ba 3ebe
